weights/800onehot.npy (npy, 6528 bytes, 1 tensors)

array f8 [800]
000000 1e 4f dc 19 81 f2 82 bf fd d9 71 b1 37 87 5c bf
       -0.009251602746679629 -0.001741222751460491
000010 37 d1 3c 66 f6 ce 8b 3f 20 de a1 b9 a0 9e 87 bf
       0.013578343386691045 -0.011533027329490741
000020 00 00 00 00 00 00 00 00 2e 86 c6 a7 59 15 50 bf
       0.0 -0.000981652788233932
000030 e8 04 c6 eb 9f 86 00 bf 1a 21 06 e6 25 fd 77 3f
       -3.152061023837545e-05 0.005856655160080737
000040 ea 89 eb 0f 92 38 40 bf 2d 43 1c eb e2 36 1a bf
       -0.000495024985721235 -0.0001
000050 f4 43 32 4f d4 b5 b0 3f 05 e0 4a 5d af 82 bc 3f
       0.06527449544434188 0.11136909511230904
000060 cf e1 49 e3 e1 55 c5 3f 5e 76 e7 04 66 b7 80 3f
       0.16668342207027684 0.00816230490175512
000070 55 0d 23 5e bc a5 0e c0 36 75 4d d9 bc 4c 8c 3f
       -3.8309256891676946 0.01381824052958312
000080 cc fc 22 4e 92 35 92 3f 94 91 2f c3 95 02 a4 3f
       0.01778248407276521 0.03908222205771775
000090 20 0c 05 90 5a 5b 9a 3f 6e ca 21 d3 62 43 20 bf
       0.02573911193873013 -0.00012407857281323008
0000a0 c1 d0 d9 9a a2 e2 7b 3f 6c 0e fe 5d a7 33 b9 3f
       0.006807933020912483 0.09844442410217774
0000b0 92 cc 35 93 1f cc d2 3f 3b 48 16 fe 2a a8 db 3f
       0.2937086999510906 0.4321391564673182
0000c0 c7 cd e8 c9 27 18 e3 3f bd 49 da 5a c5 55 ec 3f
       0.5966986602347156 0.885470082708984
0000d0 bb 19 ac a2 d1 ae f4 3f 55 8b 05 a8 15 87 fd 3f
       1.2926803926835493 1.8454796374650944
0000e0 02 31 74 c1 cc 79 04 40 00 00 00 00 00 00 00 00
       2.559472571714765 0.0
0000f0 fb de 21 db eb 47 8c bf e8 0d df 74 3e 29 c5 3f
       -0.013809054016959523 0.16532116610151992
000100 62 44 05 01 fb c9 db 3f 1f 29 16 3b 1a 71 e4 3f
       0.43420291042008874 0.6388064531359169
000110 e1 b1 90 ec 97 bc ed 3f b3 29 7f 0d a2 82 f5 3f
       0.9292716617979374 1.3443928267684953
000120 2f 75 36 66 44 33 ff 3f ad 60 05 8c e6 61 06 40
       1.9500164025005906 2.7978030146733404
000130 f8 a4 a1 f3 3b bd 0f 40 12 ad 03 ab fc 02 01 40
       3.9673995050148925 2.126458488511738
000140 03 46 c2 d5 e7 2c 8a bf f4 5e 78 cf 92 81 84 bf
       -0.012780963145163865 -0.010012766796577456
000150 f9 72 d9 26 eb f6 a1 3f 2f c8 e7 ad 92 dc a9 3f
       0.035086964123115245 0.050510963181196515
000160 00 00 00 00 00 00 00 00 6c e3 d3 b3 95 8f c6 3f
       0.0 0.1762568595948112
000170 84 b9 9c 2d d9 25 cf 3f d6 aa bf 6e e0 7a d8 3f
       0.24334254004629596 0.38249979796698363
000180 7b 64 31 ea fd 38 dd 3f 19 ba 60 51 5c e3 b7 3f
       0.45660350675968403 0.09331299769176161
000190 c3 71 02 e2 63 fe 85 bf 9a f8 40 d3 2e a6 84 bf
       -0.010739116987957048 -0.010082593748048919
0001a0 e2 d5 aa 33 48 1f 82 bf 15 be 09 9d fa de 7d bf
       -0.008848728253137265 -0.007292727431021291
0001b0 37 e8 c9 34 8c 05 f5 bf 02 c4 aa 03 44 72 6b bf
       -1.3138544141825272 -0.0033503845600866286
0001c0 1c 7b 66 73 cc 12 48 bf f0 b3 81 93 c5 9a 20 bf
       -0.0007346628470264768 -0.00012668287104436416
0001d0 d1 85 8a 19 d7 53 4e bf 62 80 07 e0 dc 78 54 3f
       -0.0009255218784184842 0.0012495190604724584
0001e0 58 b4 cb 5f d2 9c 82 bf e1 d9 2d df f4 80 81 bf
       -0.009088176296666514 -0.008546746312032507
0001f0 f3 29 9c e7 a4 9a 7f bf 64 8b 17 11 e3 00 7b bf
       -0.007715839537704816 -0.006592642764618659
000200 2a 91 5b fb 9d 41 75 bf 12 66 ce 48 cd 61 6d bf
       -0.005189530483878971 -0.003586674638836448
000210 2b f1 95 b8 3c 86 66 bf 7d 61 70 14 20 78 60 bf
       -0.0027495561559459833 -0.0020104052123423575
000220 08 22 cb de ce 24 5c bf aa 5e a3 43 e4 48 54 bf
       -0.0017177601068160148 -0.0012380818503085291
000230 59 d2 0d 25 db 72 7f bf fd 4b 92 56 01 44 7e bf
       -0.00767789462485221 -0.007389073588586645
000240 a9 3a 1a 00 f3 2e 7b bf 3d c3 3a 30 bb 07 78 bf
       -0.006636571140588168 -0.005866748051332857
000250 3c bf 83 8b 7d 04 74 bf 0a 66 94 c5 ce 8f 6f bf
       -0.0048870948887581 -0.00385275254360518
000260 36 21 89 46 20 e2 68 bf 29 4a 85 55 c5 d8 62 bf
       -0.003037512815613176 -0.0023006300145109915
000270 5a 3c 11 0a 11 74 5f bf b5 89 cf e4 05 d7 5a bf
       -0.0019197622680342725 -0.0016381795460281682
000280 51 ab 54 4b fe 64 7a bf ec b7 55 79 a0 32 79 bf
       -0.0064439710015829635 -0.0061517971529223385
000290 75 6f 41 50 70 e2 77 bf d4 75 ea dc 34 70 75 bf
       -0.005831183170894029 -0.005233961578281893
0002a0 39 4c 2d ea 1d 49 72 bf 60 f7 4c f9 9f 17 6f bf
       -0.004464260916239354 -0.0037954449166183596
0002b0 3e 03 df 5b f9 0d 69 bf be 38 ea be 33 63 64 bf
       -0.003058421162649343 -0.0024887095126536465
0002c0 71 ce 87 40 ce 10 62 bf 94 b2 7b 56 d2 84 5f bf
       -0.0022052791939531293 -0.0019237569885561011
0002d0 92 7b fb e8 52 b3 75 bf 00 00 00 00 00 00 00 00
       -0.005297969691780662 0.0
0002e0 96 0c 49 c0 67 9f 74 bf c6 76 a8 53 54 72 73 bf
       -0.005034833219329423 -0.004747704888840415
0002f0 33 13 c1 40 42 73 71 bf 5e 96 3d 46 6f be 6f bf
       -0.004260309982844035 -0.0038749860122376098
000300 8b 74 3c ed d0 4d 68 bf df d9 05 e0 5d 3c 65 bf
       -0.0029667931174928767 -0.0025922616479718687
000310 b0 d5 6b 8c 5d 23 62 bf 00 fd 21 17 dd 4c 61 bf
       -0.002214129173234901 -0.0021118467494144477
000320 31 07 ec b4 8c 08 58 bf 41 cc 62 e7 8c 10 58 bf
       -0.0014668821419836049 -0.0014687896742031777
000330 2c 63 bd 9d 3e 94 59 bf 6b 46 13 88 73 bb 5c bf
       -0.0015612231718106868 -0.001753676246427106
000340 00 00 00 00 00 00 00 00 96 1f e6 15 e5 7d 76 bf
       0.0 -0.005491156449700349
000350 61 c6 ee 25 11 2a 7d bf e1 f5 3d b1 af 8b 81 bf
       -0.0071201963282177825 -0.00856721171998748
000360 0b 84 e4 09 14 5c 84 bf a8 c8 b4 fb 29 b2 85 bf
       -0.0099412503737444 -0.010593727106059284
000370 d1 b5 6c 07 c0 05 58 bf dd 9a 7f be 9f 0d 58 bf
       -0.0014662146838405508 -0.0014680919648470327
000380 95 dc dd ac ce a7 5c bf f5 fd 32 13 19 02 64 bf
       -0.0017489927590455302 -0.002442406630137612
000390 5b d2 6a 71 c1 9d f3 bf da f1 45 12 76 f8 74 bf
       -1.2260145597803305 -0.00511976358063434
0003a0 0e d2 0e f1 5d 49 7c bf a9 8e 98 3a 5a 8d 81 bf
       -0.006905905684949433 -0.008570389664846205
0003b0 d5 0e 54 30 07 60 85 bf 30 1a a4 2f 5b 43 7e bf
       -0.010437065279354322 -0.00738845462388453
0003c0 23 02 0d 57 55 7c 56 bf 77 93 f1 6a a5 18 58 bf
       -0.001372416820416452 -0.0014707198531820045
0003d0 0b 8f 4c 64 40 36 5e bf fe 4d fe 26 3d 2d 65 bf
       -0.001843989260302106 -0.002585048139687406
0003e0 67 29 f6 34 e6 62 6d bf cf 75 bd 88 63 9e 74 bf
       -0.0035871978977343624 -0.005033863835561771
0003f0 70 54 56 61 be d6 7a bf 1b 54 f2 e0 b0 e8 80 bf
       -0.006552451775310705 -0.008256322731805146
000400 1b 91 3b cd b2 6a 68 bf 7d ce 0f 11 8d 99 df 3f
       -0.002980565282870396 0.49374701181589115
000410 4f 2c ab 90 e3 7c 53 bf bb a2 ee 97 18 f1 54 bf
       -0.0011894438090844955 -0.001278184907031284
000420 b4 21 03 35 fc 5d 5b bf 91 6b ee 97 bd 80 62 bf
       -0.0016703570327526287 -0.0022586539266291135
000430 02 83 11 66 fd 81 69 bf d1 58 5d 27 de ac 71 bf
       -0.003113741797776349 -0.004315250194698987
000440 c7 cd 94 de 1d f2 76 bf 52 d1 68 f0 2c e1 7b bf
       -0.005601994206972666 -0.006806541007382387
000450 ec 73 7e 33 5a 2f bb 3f de 34 12 b7 ba fb e8 3f
       0.10619128949333828 0.7807286811454579
000460 1f d4 52 aa c7 3a 50 bf 02 e1 c1 e6 2f d7 51 bf
       -0.0009905767304137015 -0.001088902262408154
000470 66 54 18 44 6c 2d 55 bf bf 7f f3 f4 a0 57 57 bf
       -0.0012925679478759332 -0.0014247009128709324
000480 00 00 00 00 00 00 00 00 78 7a 6d 02 be dd 6c bf
       0.0 -0.003523703682204723
000490 03 84 06 99 10 b2 71 bf 18 21 11 c3 f2 b3 73 bf
       -0.004320206484778491 -0.0048102839364861025
0004a0 7e 3d 2e 85 ed 8d bf 3f de 2c 24 56 d5 fa f1 3f
       0.1232593965671551 1.1237386097807796
0004b0 41 70 f9 d1 a8 29 4d bf 25 c6 22 a9 2e 4e 50 bf
       -0.0008899759595340022 -0.0009952026053209409
0004c0 98 e7 c8 1c 52 cf 51 bf d1 6e 4a 31 04 09 55 bf
       -0.0010870267752935755 -0.0012838879530709289
0004d0 41 35 7a ec d1 65 df bf 95 75 5a 25 61 cc 63 bf
       -0.49058960050100003 -0.0024167916661343527
0004e0 8b 63 36 d9 49 eb 67 bf 86 58 7d d6 be d6 69 bf
       -0.0029198114732022543 -0.003154156427551294
0004f0 81 83 35 72 e3 eb c3 3f ba 95 a7 4e 9a fb f9 3f
       0.1556362445508306 1.6239264557310507
000500 34 26 13 8b 36 ee 46 bf 53 87 07 70 72 e3 46 bf
       -0.0006997839283481911 -0.0006985005166450876
000510 ee 2c 71 32 ad 55 4d bf a0 f8 10 c6 8b da 51 bf
       -0.0008952232063931512 -0.0010897030808929911
000520 5e 0e 55 61 cc 1c 55 bf 8f e4 aa 83 b6 68 5a bf
       -0.0012886043453627298 -0.001611879574438899
000530 19 5e fa 7d 3e a5 60 bf 92 a3 1b 34 e7 9a 35 3f
       -0.002031919531713344 0.00032966751687851196
000540 16 2e ae 4a 3a 84 d5 3f 39 17 3f a7 0f c7 02 40
       0.33619553845412165 2.3471978250626333
000550 6e a3 93 e5 86 a0 43 bf ec c9 45 1c 95 76 40 bf
       -0.0005989702869132316 -0.0005024173811263833
000560 93 51 60 05 8c f9 46 bf 91 1f 56 d5 0c 45 4a bf
       -0.0007011350342076998 -0.0008016884482211375
000570 51 04 2d fe 10 60 4a bf 94 dc f5 cc 52 26 52 bf
       -0.0008049090359706445 -0.0011077698325985584
000580 50 e5 e4 26 16 04 52 bf a1 b3 7d ee 02 bd 32 bf
       -0.0010996071174090467 -0.0002859241635551572
000590 4e 5d b2 9e bf e0 e0 3f 1c 0a a6 05 66 fa 0a 40
       0.5274351214929227 3.372264904145835
0005a0 0b ab ba eb a4 d3 33 bf 62 80 9e da 26 19 3a bf
       -0.0003025319708551 -0.00039822767814179903
0005b0 58 b3 81 c9 06 24 3a bf 63 27 a2 c2 0b 71 40 bf
       -0.00039887586309 -0.0005017573760295154
0005c0 ec 4b 07 7c 25 b1 43 bf ec 8d ed 91 bc 1a 47 bf
       -0.00060095148369965 -0.0007050915481667231
0005d0 56 11 6f 59 ba 0b 47 bf fd f4 3f c3 12 44 2a bf
       -0.0007033023747387384 -0.00020039300000000002
0005e0 d6 f1 43 a4 5f fb e7 3f 39 7c 8a 67 ca 2a 13 40
       0.7494352539356963 4.791787736728161
0005f0 84 98 18 02 31 66 1a bf 00 00 00 00 00 00 00 00
       -0.0001007049 0.0
000600 d0 63 43 20 5f 8e 33 bf 99 c6 de 2b 74 8e 33 bf
       -0.00029840300000000004 -0.0002984079
000610 20 02 30 90 a0 24 3a bf 36 e3 51 1a 70 66 40 bf
       -0.0003989116668776955 -0.0005004927994739286
000620 06 7c c3 93 3a 6b 40 bf 3e 23 a7 c9 56 38 2a bf
       -0.0005010639211170404 -0.00020004329128500172
000630 65 f3 e2 5d 0e 4e 99 3f 00 00 00 00 00 00 00 00
       0.024711822967890557 0.0
000640 4f 7e 3c 2b c6 a3 77 bf e6 9c af c4 3a e0 91 3f
       -0.00577142152522432 0.01745693040348053
000650 16 23 ca bb 5c a6 63 bf 10 f6 17 b9 26 93 0b c0
       -0.0023986636354646025 -3.4468512020528195
000660 00 00 00 00 00 00 00 00 06 51 8d d1 31 89 56 3f
       0.0 0.0013754831799888691
000670 9c 4b c8 20 0f ca 2f 3f 18 92 6f c1 2a a1 38 3f
       0.0002425330607286031 0.00037581724012472747
000680 5e f3 6f 5b 92 bb 3a bf c6 1b b7 dc c7 da 29 bf
       -0.000407908660633718 -0.00019725503658049435
000690 12 6c f7 31 c9 d2 c9 3f f6 5b bf 0d 0c 5c d3 3f
       0.20174517574091105 0.3024931082013035
0006a0 22 14 a2 1b 2a d0 da 3f 21 eb 61 0c 94 f2 c9 3f
       0.41895535181567045 0.20271540264715163
0006b0 2b 36 6b 77 70 8d cb 3f 44 0a 4c 81 e2 2c d3 3f
       0.21525388556476463 0.29961454989112135
0006c0 5f 0c 26 2a c1 5c d5 3f f9 fd 86 b1 04 89 e3 3f
       0.33378628841473373 0.6104758708315209
0006d0 1a 94 fa d3 fe 35 cf 3f 5d 23 5a e0 f2 8e a1 3f
       0.2438353095105022 0.03429373730347749
0006e0 9e d8 c7 73 2c c2 d2 3f 04 f3 d9 dc b9 91 dc 3f
       0.29310141855911265 0.44639441077724507
0006f0 2a 75 b0 34 67 dd e4 3f 66 8a 4c c0 9a 43 ee 3f
       0.6520267514312412 0.9457525020446382
000700 5e 54 ba 7a 84 d8 f5 3f be 8e fb 32 d3 6f ff 3f
       1.365360717206634 1.9648010245809213
000710 a4 15 1a 1d b4 91 06 40 82 b0 fc 47 8f 2d 10 40
       2.8211443208299034 4.044491886899893
000720 58 9d 77 75 24 2b 17 40 00 00 00 00 00 00 00 00
       5.79213126699991 0.0
000730 4b d8 cb a9 2b 49 51 bf 6a 02 d8 0e d4 7a 7d 3f
       -0.001055042877110351 0.007197216369150364
000740 43 e9 36 60 2e b8 b0 3f f4 ce a8 03 ec b1 b3 3f
       0.06531038140284288 0.07693362321225178
000750 00 d0 9d 88 7b 80 c1 3f 82 d9 5b 3e d8 c5 d2 3f
       0.13673347635960909 0.2933254822704826
000760 31 26 b0 7a b5 f6 db 3f e9 2a 82 5b 9e f4 e3 3f
       0.4369329164624985 0.6236106669687987
000770 e2 dd 12 78 b1 85 d1 3f af 39 c6 5a 95 2b 95 3f
       0.2737849876970967 0.02067407003920046
000780 78 33 97 96 e3 0d 8a bf 34 1f d7 d9 42 f4 87 bf
       -0.012721803696786202 -0.011696359894713383
000790 65 d0 19 98 76 a2 84 bf 9b 46 53 d8 40 d7 fb bf
       -0.010075499073743008 -1.7400520754057769
0007a0 00 00 00 00 00 00 00 00 01 8d 35 a5 09 11 61 bf
       0.0 -0.0020833195100508077
0007b0 5c 2d c6 57 63 7d 38 3f 74 2d 52 3f c3 6d 6c 3f
       0.0003736846481607514 0.003470307676769197
0007c0 64 44 51 d5 19 6c 3d 3f 2d 43 1c eb e2 36 1a bf
       0.00044894819922542393 -0.0001
0007d0 83 4f e7 c4 ad ee 85 bf 48 ec ec ca ee 8c 84 bf
       -0.010709149905700382 -0.010034432952684594
0007e0 33 07 72 b8 49 1f 82 bf ef 46 96 c1 cb 3c 7e bf
       -0.008848739568069064 -0.007382198259976865
0007f0 e9 05 17 ac d4 67 75 bf 73 e9 03 0b 0c 94 6b bf
       -0.005225973845371248 -0.0033664927688025702
